…
      "outputs": [
        {
          "output_type": "stream",
          "name": "stdout",
          "text": [
            "Model: \"model_2\"\n",
            "_________________________________________________________________\n",
            " Layer (type)                Output Shape              Param #   \n",
            "=================================================================\n",
            " input_3 (InputLayer)        [(None, 128, 128, 3)]     0         \n",
            "                                                                 \n",
            " conv2d_32 (Conv2D)          (None, 64, 64, 64)        3136      \n",
            "                                                                 \n",
            " leaky_re_lu (LeakyReLU)     (None, 64, 64, 64)        0         \n",
            "                                                                 \n",
            " conv2d_33 (Conv2D)          (None, 32, 32, 128)       131200    \n",
            "                                                                 \n",
            " instance_normalization_36 (  (None, 32, 32, 128)      256       \n",
            " InstanceNormalization)                                          \n",
            "                                                                 \n",
            " leaky_re_lu_1 (LeakyReLU)   (None, 32, 32, 128)       0         \n",
            "                                                                 \n",
            " conv2d_34 (Conv2D)          (None, 16, 16, 256)       524544    \n",
            "                                                                 \n",
            " instance_normalization_37 (  (None, 16, 16, 256)      512       \n",
            " InstanceNormalization)                                          \n",
            "                                                                 \n",
            " leaky_re_lu_2 (LeakyReLU)   (None, 16, 16, 256)       0         \n",
            "                                                                 \n",
            " conv2d_35 (Conv2D)          (None, 16, 16, 512)       2097664   \n",
            "                                                                 \n",
            " instance_normalization_38 (  (None, 16, 16, 512)      1024      \n",
            " InstanceNormalization)                                          \n",
            "                                                                 \n",
            " leaky_re_lu_3 (LeakyReLU)   (None, 16, 16, 512)       0         \n",
            "                                                                 \n",
            " conv2d_36 (Conv2D)          (None, 16, 16, 512)       4194816   \n",
            "                                                                 \n",
            " instance_normalization_39 (  (None, 16, 16, 512)      1024      \n",
            " InstanceNormalization)                                          \n",
            "                                                                 \n",
            " leaky_re_lu_4 (LeakyReLU)   (None, 16, 16, 512)       0         \n",
            "                                                                 \n",
            " conv2d_37 (Conv2D)          (None, 16, 16, 1)         8193      \n",
            "                                                                 \n",
            "=================================================================\n",
            "Total params: 6,962,369\n",
            "Trainable params: 0\n",
            "Non-trainable params: 6,962,369\n",
            "_________________________________________________________________\n"
          ]
        }
…
